saved_model/llrnet_qam64_model.onnx (onnx, 730 bytes, 1 tensors)

StatefulPartitionedCall/sequential/dense/MatMul/ReadVariableOp:0 f4 [2, 16]
0	0x3ef313f8	0.47476172
1	0xbf0237bc	-0.50866294
2	0xbedf288e	-0.43585628
3	0x3e6e36e8	0.23263133
4	0x3d8940c0	0.06701803
5	0x3eb9a1c2	0.36256224
6	0xbf0087fc	-0.50207496
7	0xbf077aaa	-0.52921546
8	0xbe6a4094	-0.22876197
9	0xbc543a80	-0.012953401
10	0x3f1101d4	0.56643414
11	0x3eee7ac0	0.46578026
12	0xbed0291a	-0.40656358
13	0x3c9c5720	0.019084513
14	0x3f136ba0	0.575861
15	0xbc9e0540	-0.019289613
16	0x3e628608	0.22121441
17	0xbed98144	-0.42481434
18	0xbedd8922	-0.43268687
19	0xbea15fd9	-0.31518438
20	0xbd881c18	-0.066459835
21	0xbe9a139d	-0.3009309
22	0xbd75de00	-0.06002617
23	0x3e2920f0	0.16516471
24	0x3ebaf378	0.36513877
25	0x3e55f4c8	0.20894158
26	0x3e584b48	0.21122468
27	0xbee59fe0	-0.44848537
28	0xbebda7e8	-0.37042165
29	0xbee9b042	-0.45642287
30	0xbd17af00	-0.037032127
31	0x3e846444	0.25857747
